…
bptt_horizon 8
update_epochs 2
Vec-envparameters
env_pool True
num_envs 15
envs_per_worker 1
envs_per_batch 6
Historicself-playparameters
pool_kernel [0]*112+[1]*16
25A.6 Modelarchitectures
Thesourcecodeofthepolicyisathttps://github.com/kywch/meta-mmo/blob/main/agent_
zoo/baseline/policy.py.
Mini Config model consists of three encoders (TileEncoder, PlayerEncoder, and TaskEncoder),
fully-connectedlayerstothehiddenlayer(256units),1layerofLSTM,anactiondecoder,anda
valuenetwork.Thenumberofparametersis1.74M.
RecurrentPolicy(
(policy): Recurrent(
(policy): Policy(
(tile_encoder): TileEncoder(
(type_embedding): Embedding(16, 30)
(entity_embedding): Embedding(8, 15)
(rally_embedding): Embedding(8, 15)
(tile_resnet): ResnetBlock(
(model): Sequential(
(0): Conv2d(64, 64, kernel_size=(3, 3), stride=(1, 1), padding=(1, 1))
(1): LayerNorm((64, 15, 15), eps=1e-05, elementwise_affine=True)
(2): ReLU()
(3): Conv2d(64, 64, kernel_size=(3, 3), stride=(1, 1), padding=(1, 1))
(4): LayerNorm((64, 15, 15), eps=1e-05, elementwise_affine=True)
)
)
(tile_conv_1): Conv2d(64, 32, kernel_size=(3, 3), stride=(1, 1))
(tile_conv_2): Conv2d(32, 8, kernel_size=(3, 3), stride=(1, 1))
(tile_fc): Linear(in_features=968, out_features=256, bias=True)
(tile_norm): LayerNorm((256,), eps=1e-05, elementwise_affine=True)
)
(player_encoder): PlayerEncoder(
(embedding): Embedding(7936, 32)
(id_embedding): Embedding(512, 64)
(agent_mlp): MLPBlock(
(model): Sequential(
(0): Linear(in_features=93, out_features=256, bias=True)
(1): ReLU()
(2): Linear(in_features=256, out_features=256, bias=True)
)
)
(agent_fc): Linear(in_features=256, out_features=256, bias=True)
(my_agent_fc): Linear(in_features=256, out_features=256, bias=True)
(agent_norm): LayerNorm((256,), eps=1e-05, elementwise_affine=True)
(my_agent_norm): LayerNorm((256,), eps=1e-05, elementwise_affine=True)
)
(task_encoder): TaskEncoder(
(fc): Linear(in_features=27, out_features=256, bias=True)
(norm): LayerNorm((256,), eps=1e-05, elementwise_affine=True)
)
(proj_fc): Linear(in_features=768, out_features=256, bias=True)
(action_decoder): ActionDecoder(
(layers): ModuleDict(
(attack_style): Linear(in_features=256, out_features=3, bias=True)
(attack_target): Linear(in_features=256, out_features=256, bias=True)
(comm_token): Linear(in_features=256, out_features=127, bias=True)
(move): Linear(in_features=256, out_features=5, bias=True)
)
)
(value_head): Linear(in_features=256, out_features=1, bias=True)
)
(recurrent): LSTM(256, 256)
)
)
26FullConfigmodel:ItemEncoderandMarketEncoderwereaddedtotheMiniConfigmodel,andthe
actiondecodersupportsthefullactionspace.Thenumberofparametersis3.33M.
RecurrentPolicy(
(policy): Recurrent(
(policy): Policy(
(tile_encoder): TileEncoder(
(type_embedding): Embedding(16, 30)
(entity_embedding): Embedding(8, 15)
(rally_embedding): Embedding(8, 15)
(tile_resnet): ResnetBlock(
(model): Sequential(
(0): Conv2d(64, 64, kernel_size=(3, 3), stride=(1, 1), padding=(1, 1))
(1): LayerNorm((64, 15, 15), eps=1e-05, elementwise_affine=True)
(2): ReLU()
(3): Conv2d(64, 64, kernel_size=(3, 3), stride=(1, 1), padding=(1, 1))
(4): LayerNorm((64, 15, 15), eps=1e-05, elementwise_affine=True)
)
)
(tile_conv_1): Conv2d(64, 32, kernel_size=(3, 3), stride=(1, 1))
(tile_conv_2): Conv2d(32, 8, kernel_size=(3, 3), stride=(1, 1))
(tile_fc): Linear(in_features=968, out_features=256, bias=True)
(tile_norm): LayerNorm((256,), eps=1e-05, elementwise_affine=True)
)
(player_encoder): PlayerEncoder(
(embedding): Embedding(7936, 32)
(id_embedding): Embedding(512, 64)
(agent_mlp): MLPBlock(
(model): Sequential(
(0): Linear(in_features=93, out_features=256, bias=True)
(1): ReLU()
(2): Linear(in_features=256, out_features=256, bias=True)
)
)
(agent_fc): Linear(in_features=256, out_features=256, bias=True)
(my_agent_fc): Linear(in_features=256, out_features=256, bias=True)
(agent_norm): LayerNorm((256,), eps=1e-05, elementwise_affine=True)
(my_agent_norm): LayerNorm((256,), eps=1e-05, elementwise_affine=True)
)
(task_encoder): TaskEncoder(
(fc): Linear(in_features=27, out_features=256, bias=True)
(norm): LayerNorm((256,), eps=1e-05, elementwise_affine=True)
)
(item_encoder): ItemEncoder(
(embedding): Embedding(256, 32)
(item_mlp): MLPBlock(
(model): Sequential(
(0): Linear(in_features=76, out_features=256, bias=True)
(1): ReLU()
(2): Linear(in_features=256, out_features=256, bias=True)
)
)
(item_norm): LayerNorm((256,), eps=1e-05, elementwise_affine=True)
)
(inventory_encoder): InventoryEncoder(
(fc): Linear(in_features=3072, out_features=256, bias=True)
(norm): LayerNorm((256,), eps=1e-05, elementwise_affine=True)
)
(market_encoder): MarketEncoder(
(fc): Linear(in_features=256, out_features=256, bias=True)
(norm): LayerNorm((256,), eps=1e-05, elementwise_affine=True)
)
(proj_fc): Linear(in_features=1280, out_features=256, bias=True)
(action_decoder): ActionDecoder(
(layers): ModuleDict(
27(attack_style): Linear(in_features=256, out_features=3, bias=True)
(attack_target): Linear(in_features=256, out_features=256, bias=True)
(market_buy): Linear(in_features=256, out_features=256, bias=True)
(comm_token): Linear(in_features=256, out_features=127, bias=True)
(inventory_destroy): Linear(in_features=256, out_features=256, bias=True)
(inventory_give_item): Linear(in_features=256, out_features=256, bias=True)
(inventory_give_player): Linear(in_features=256, out_features=256, bias=True)
(gold_quantity): Linear(in_features=256, out_features=99, bias=True)
(gold_target): Linear(in_features=256, out_features=256, bias=True)
(move): Linear(in_features=256, out_features=5, bias=True)
(inventory_sell): Linear(in_features=256, out_features=256, bias=True)
(inventory_price): Linear(in_features=256, out_features=99, bias=True)
(inventory_use): Linear(in_features=256, out_features=256, bias=True)
)
)
(value_head): Linear(in_features=256, out_features=1, bias=True)
)
(recurrent): LSTM(256, 256)
)
)
28A.7 EvaluationMetrics
Theperformanceofanagentorpolicyinmultiagentsettingsisrelativetootheragentsorpolicies
intheenvironment.Inourbaselinerepository,weincludetrainedpolicycheckpointsatdifferent
trainingsteps,alongwithscriptsforevaluatingpoliciesina"checkpointvs.checkpoint"manner.
EloRating:Eloratingscanbeusedforallminigamesinvolvingmultiplecheckpoints.Thegame
…
