…
GAE lambda: 0.95
toggles advantages normalization: True
surrogate clipping coefficient: 0.2
clip value loss: True
entropy coefficient: 0.01
maximum norm for the gradient clipping: 0.5
#-------------------------------- Parameters for Optimizer ---------------------------#
learning rate: 1e-4
weigth decay: 1e-4
optimizer: AdamW
optimizer scheduler: CosineAnnealingLR
18MARLMeetsLeafSequencinginRT
D.DetailsofNetworkStructures
LeafActor:
----------------------------------------------------------------
Layer type Output Shape Param #
================================================================
Input [-1, 205] 0
Linear-1 [-1, 512] 105472
ELU-1 [-1, 512] 0
Linear-2 [-1, 512] 262656
ELU-2 [-1, 512] 0
Linear-3 [-1, 512] 262656
ELU-3 [-1, 512] 0
Linear-4 [-1, 512] 262656
ELU-4 [-1, 512] 0
Linear-5 [-1, 18] 9234
ELU-5 [-1, 18] 0
================================================================
Total params: 902674
Trainable params: 902674
----------------------------------------------------------------
MUActor:
----------------------------------------------------------------
Layer type Output Shape Param #
================================================================
Input [-1, 205] 0
Linear-1 [-1, 512] 105472
ELU-1 [-1, 512] 0
Linear-2 [-1, 512] 262656
ELU-2 [-1, 512] 0
Linear-3 [-1, 512] 262656
ELU-3 [-1, 512] 0
Linear-4 [-1, 2] 1026
ELU-4 [-1, 2] 0
================================================================
Total params: 631810
Trainable params: 631810
----------------------------------------------------------------
Critic:
----------------------------------------------------------------
Layer type Output Shape Param #
================================================================
Input [-1, 205] 0
Linear-1 [-1, 512] 105472
ELU-1 [-1, 512] 0
Linear-2 [-1, 512] 262656
ELU-2 [-1, 512] 0
Linear-3 [-1, 512] 262656
ELU-3 [-1, 512] 0
Linear-4 [-1, 512] 262656
ELU-4 [-1, 512] 0
Linear-5 [-1, 1] 513
ELU-5 [-1, 1] 0
================================================================
Total params: 893953
Trainable params: 893953
----------------------------------------------------------------
19MARLMeetsLeafSequencinginRT
E.TheFull-AIEnd-to-end(E2E)Pipeline
E.1.IntroductionofOtherModules
DosePrediction. Dosepredictionwithdeeplearningisarelativelywell-studiedtopic. Itcanbeconsideredanextensionof
planningobjectivespredictioncomparedtothedotobjectivesinconventionaloptimizationorlineobjectivesinRapidPlan.
…
